…
I0822 19:29:56.476047 31324 net.cpp:294] The NetState phase (0) differed from the phase (1) specified by a rule in layer accuracy5
I0822 19:29:56.476198 31324 net.cpp:51] Initializing net from parameters: 
name: "AlexNet"
state {
  phase: TRAIN
  level: 0
  stage: ""
}
layer {
  name: "data"
  type: "Data"
  top: "data"
  top: "label"
  include {
    phase: TRAIN
  }
  transform_param {
    mirror: true
    crop_size: 227
    mean_file: "/home/kaiqi/imagenet/imagenet_mean.binaryproto"
  }
  data_param {
    source: "/home/kaiqi/imagenet/ilsvrc12_train_lmdb"
    batch_size: 256
    backend: LMDB
  }
}
layer {
  name: "conv1"
  type: "Convolution"
  bottom: "data"
  top: "conv1"
  param {
    lr_mult: 1
    decay_mult: 1
    rho: 0.0015
    clustering_num: 128
  }
  param {
    lr_mult: 2
    decay_mult: 0
  }
  convolution_param {
    num_output: 96
    kernel_size: 11
    stride: 4
    weight_filler {
      type: "gaussian"
      std: 0.01
    }
    bias_filler {
      type: "constant"
      value: 0
    }
  }
}
layer {
  name: "relu1"
  type: "ReLU"
  bottom: "conv1"
  top: "conv1"
}
layer {
  name: "norm1"
  type: "LRN"
  bottom: "conv1"
  top: "norm1"
  lrn_param {
    local_size: 5
    alpha: 0.0001
    beta: 0.75
  }
}
layer {
  name: "pool1"
  type: "Pooling"
  bottom: "norm1"
  top: "pool1"
  pooling_param {
    pool: MAX
    kernel_size: 3
    stride: 2
  }
}
layer {
  name: "conv2"
  type: "Convolution"
  bottom: "pool1"
  top: "conv2"
  param {
    lr_mult: 1
    decay_mult: 1
    rho: 0.0015
    clustering_num: 64
  }
  param {
    lr_mult: 2
    decay_mult: 0
  }
  convolution_param {
    num_output: 256
    pad: 2
    kernel_size: 5
    group: 2
    weight_filler {
      type: "gaussian"
      std: 0.01
    }
    bias_filler {
      type: "constant"
      value: 0.1
    }
  }
}
layer {
  name: "relu2"
  type: "ReLU"
  bottom: "conv2"
  top: "conv2"
}
layer {
  name: "norm2"
  type: "LRN"
  bottom: "conv2"
  top: "norm2"
  lrn_param {
    local_size: 5
    alpha: 0.0001
    beta: 0.75
  }
}
layer {
  name: "pool2"
  type: "Pooling"
  bottom: "norm2"
  top: "pool2"
  pooling_param {
    pool: MAX
    kernel_size: 3
    stride: 2
  }
}
layer {
  name: "conv3"
  type: "Convolution"
  bottom: "pool2"
  top: "conv3"
  param {
    lr_mult: 1
    decay_mult: 1
    rho: 0.0015
    clustering_num: 64
  }
  param {
    lr_mult: 2
    decay_mult: 0
  }
  convolution_param {
    num_output: 384
    pad: 1
    kernel_size: 3
    weight_filler {
      type: "gaussian"
      std: 0.01
    }
    bias_filler {
      type: "constant"
      value: 0
    }
  }
}
layer {
  name: "relu3"
  type: "ReLU"
  bottom: "conv3"
  top: "conv3"
}
layer {
  name: "conv4"
  type: "Convolution"
  bottom: "conv3"
  top: "conv4"
  param {
    lr_mult: 1
    decay_mult: 1
    rho: 0.0015
    clustering_num: 64
  }
  param {
    lr_mult: 2
    decay_mult: 0
  }
  convolution_param {
    num_output: 384
    pad: 1
    kernel_size: 3
    group: 2
    weight_filler {
      type: "gaussian"
      std: 0.01
    }
    bias_filler {
      type: "constant"
      value: 0.1
    }
  }
}
layer {
  name: "relu4"
  type: "ReLU"
  bottom: "conv4"
  top: "conv4"
}
layer {
  name: "conv5"
  type: "Convolution"
  bottom: "conv4"
  top: "conv5"
  param {
    lr_mult: 1
    decay_mult: 1
    rho: 0.0015
    clustering_num: 64
  }
  param {
    lr_mult: 2
    decay_mult: 0
  }
  convolution_param {
    num_output: 256
    pad: 1
    kernel_size: 3
    group: 2
    weight_filler {
      type: "gaussian"
      std: 0.01
    }
    bias_filler {
      type: "constant"
      value: 0.1
    }
  }
}
layer {
  name: "relu5"
  type: "ReLU"
  bottom: "conv5"
  top: "conv5"
}
layer {
  name: "pool5"
  type: "Pooling"
  bottom: "conv5"
  top: "pool5"
  pooling_param {
    pool: MAX
    kernel_size: 3
    stride: 2
  }
}
layer {
  name: "fc6"
  type: "InnerProduct"
  bottom: "pool5"
  top: "fc6"
  param {
    lr_mult: 1
    decay_mult: 1
    rho: 0.0015
    clustering_num: 8
  }
  param {
    lr_mult: 2
    decay_mult: 0
  }
  inner_product_param {
    num_output: 4096
    weight_filler {
      type: "gaussian"
      std: 0.005
    }
    bias_filler {
      type: "constant"
      value: 0.1
    }
  }
}
layer {
  name: "relu6"
  type: "ReLU"
  bottom: "fc6"
  top: "fc6"
}
layer {
  name: "drop6"
  type: "Dropout"
  bottom: "fc6"
  top: "fc6"
  dropout_param {
    dropout_ratio: 0.5
  }
}
layer {
  name: "fc7"
  type: "InnerProduct"
  bottom: "fc6"
  top: "fc7"
  param {
    lr_mult: 1
    decay_mult: 1
    rho: 0.0015
    clustering_num: 4
  }
  param {
    lr_mult: 2
    decay_mult: 0
  }
  inner_product_param {
    num_output: 4096
    weight_filler {
      type: "gaussian"
      std: 0.005
    }
    bias_filler {
      type: "constant"
      value: 0.1
    }
  }
}
layer {
  name: "relu7"
  type: "ReLU"
  bottom: "fc7"
  top: "fc7"
}
layer {
  name: "drop7"
  type: "Dropout"
  bottom: "fc7"
  top: "fc7"
  dropout_param {
    dropout_ratio: 0.5
  }
}
layer {
  name: "fc8"
  type: "InnerProduct"
  bottom: "fc7"
  top: "fc8"
  param {
    lr_mult: 1
    decay_mult: 1
    rho: 0.0015
    clustering_num: 128
  }
  param {
    lr_mult: 2
    decay_mult: 0
  }
  inner_product_param {
    num_output: 1000
    weight_filler {
      type: "gaussian"
      std: 0.01
    }
    bias_filler {
      type: "constant"
      value: 0
    }
  }
}
layer {
  name: "loss"
  type: "SoftmaxWithLoss"
  bottom: "fc8"
  bottom: "label"
  top: "loss"
}
I0822 19:29:56.476289 31324 layer_factory.hpp:77] Creating layer data
I0822 19:29:56.476814 31324 db_lmdb.cpp:35] Opened lmdb /home/kaiqi/imagenet/ilsvrc12_train_lmdb
I0822 19:29:56.477677 31324 net.cpp:84] Creating Layer data
I0822 19:29:56.477705 31324 net.cpp:380] data -> data
I0822 19:29:56.477766 31324 net.cpp:380] data -> label
I0822 19:29:56.477799 31324 data_transformer.cpp:25] Loading mean file from: /home/kaiqi/imagenet/imagenet_mean.binaryproto
I0822 19:29:56.499824 31324 data_layer.cpp:45] output data size: 256,3,227,227
I0822 19:29:56.839301 31324 net.cpp:122] Setting up data
I0822 19:29:56.839335 31324 net.cpp:129] Top shape: 256 3 227 227 (39574272)
I0822 19:29:56.839342 31324 net.cpp:129] Top shape: 256 (256)
I0822 19:29:56.839346 31324 net.cpp:137] Memory required for data: 158298112
I0822 19:29:56.839355 31324 layer_factory.hpp:77] Creating layer conv1
I0822 19:29:56.839377 31324 net.cpp:84] Creating Layer conv1
I0822 19:29:56.839385 31324 net.cpp:406] conv1 <- data
I0822 19:29:56.839399 31324 net.cpp:380] conv1 -> conv1
I0822 19:29:58.669670 31324 net.cpp:122] Setting up conv1
I0822 19:29:58.669730 31324 net.cpp:129] Top shape: 256 96 55 55 (74342400)
I0822 19:29:58.669742 31324 net.cpp:137] Memory required for data: 455667712
I0822 19:29:58.669793 31324 layer_factory.hpp:77] Creating layer relu1
I0822 19:29:58.669816 31324 net.cpp:84] Creating Layer relu1
I0822 19:29:58.669826 31324 net.cpp:406] relu1 <- conv1
I0822 19:29:58.669845 31324 net.cpp:367] relu1 -> conv1 (in-place)
I0822 19:29:58.670696 31324 net.cpp:122] Setting up relu1
I0822 19:29:58.670722 31324 net.cpp:129] Top shape: 256 96 55 55 (74342400)
I0822 19:29:58.670740 31324 net.cpp:137] Memory required for data: 753037312
I0822 19:29:58.670765 31324 layer_factory.hpp:77] Creating layer norm1
I0822 19:29:58.670783 31324 net.cpp:84] Creating Layer norm1
I0822 19:29:58.670797 31324 net.cpp:406] norm1 <- conv1
I0822 19:29:58.670809 31324 net.cpp:380] norm1 -> norm1
I0822 19:29:58.672116 31324 net.cpp:122] Setting up norm1
I0822 19:29:58.672145 31324 net.cpp:129] Top shape: 256 96 55 55 (74342400)
I0822 19:29:58.672154 31324 net.cpp:137] Memory required for data: 1050406912
I0822 19:29:58.672163 31324 layer_factory.hpp:77] Creating layer pool1
I0822 19:29:58.672183 31324 net.cpp:84] Creating Layer pool1
I0822 19:29:58.672191 31324 net.cpp:406] pool1 <- norm1
I0822 19:29:58.672204 31324 net.cpp:380] pool1 -> pool1
I0822 19:29:58.672292 31324 net.cpp:122] Setting up pool1
I0822 19:29:58.672312 31324 net.cpp:129] Top shape: 256 96 27 27 (17915904)
I0822 19:29:58.672319 31324 net.cpp:137] Memory required for data: 1122070528
I0822 19:29:58.672327 31324 layer_factory.hpp:77] Creating layer conv2
I0822 19:29:58.672353 31324 net.cpp:84] Creating Layer conv2
I0822 19:29:58.672364 31324 net.cpp:406] conv2 <- pool1
I0822 19:29:58.672380 31324 net.cpp:380] conv2 -> conv2
I0822 19:29:58.685381 31324 net.cpp:122] Setting up conv2
I0822 19:29:58.685413 31324 net.cpp:129] Top shape: 256 256 27 27 (47775744)
I0822 19:29:58.685423 31324 net.cpp:137] Memory required for data: 1313173504
I0822 19:29:58.685441 31324 layer_factory.hpp:77] Creating layer relu2
I0822 19:29:58.685454 31324 net.cpp:84] Creating Layer relu2
I0822 19:29:58.685467 31324 net.cpp:406] relu2 <- conv2
I0822 19:29:58.685478 31324 net.cpp:367] relu2 -> conv2 (in-place)
I0822 19:29:58.686833 31324 net.cpp:122] Setting up relu2
I0822 19:29:58.686864 31324 net.cpp:129] Top shape: 256 256 27 27 (47775744)
I0822 19:29:58.686872 31324 net.cpp:137] Memory required for data: 1504276480
I0822 19:29:58.686882 31324 layer_factory.hpp:77] Creating layer norm2
I0822 19:29:58.686897 31324 net.cpp:84] Creating Layer norm2
I0822 19:29:58.686905 31324 net.cpp:406] norm2 <- conv2
I0822 19:29:58.686918 31324 net.cpp:380] norm2 -> norm2
I0822 19:29:58.687927 31324 net.cpp:122] Setting up norm2
I0822 19:29:58.687949 31324 net.cpp:129] Top shape: 256 256 27 27 (47775744)
I0822 19:29:58.687958 31324 net.cpp:137] Memory required for data: 1695379456
I0822 19:29:58.687964 31324 layer_factory.hpp:77] Creating layer pool2
I0822 19:29:58.687983 31324 net.cpp:84] Creating Layer pool2
I0822 19:29:58.687990 31324 net.cpp:406] pool2 <- norm2
I0822 19:29:58.688004 31324 net.cpp:380] pool2 -> pool2
I0822 19:29:58.688071 31324 net.cpp:122] Setting up pool2
I0822 19:29:58.688089 31324 net.cpp:129] Top shape: 256 256 13 13 (11075584)
I0822 19:29:58.688097 31324 net.cpp:137] Memory required for data: 1739681792
I0822 19:29:58.688103 31324 layer_factory.hpp:77] Creating layer conv3
I0822 19:29:58.688123 31324 net.cpp:84] Creating Layer conv3
I0822 19:29:58.688135 31324 net.cpp:406] conv3 <- pool2
I0822 19:29:58.688150 31324 net.cpp:380] conv3 -> conv3
I0822 19:29:58.706284 31324 net.cpp:122] Setting up conv3
I0822 19:29:58.706315 31324 net.cpp:129] Top shape: 256 384 13 13 (16613376)
I0822 19:29:58.706324 31324 net.cpp:137] Memory required for data: 1806135296
I0822 19:29:58.706344 31324 layer_factory.hpp:77] Creating layer relu3
I0822 19:29:58.706357 31324 net.cpp:84] Creating Layer relu3
I0822 19:29:58.706365 31324 net.cpp:406] relu3 <- conv3
I0822 19:29:58.706377 31324 net.cpp:367] relu3 -> conv3 (in-place)
I0822 19:29:58.707262 31324 net.cpp:122] Setting up relu3
I0822 19:29:58.707283 31324 net.cpp:129] Top shape: 256 384 13 13 (16613376)
I0822 19:29:58.707290 31324 net.cpp:137] Memory required for data: 1872588800
I0822 19:29:58.707298 31324 layer_factory.hpp:77] Creating layer conv4
I0822 19:29:58.707316 31324 net.cpp:84] Creating Layer conv4
I0822 19:29:58.707324 31324 net.cpp:406] conv4 <- conv3
I0822 19:29:58.707339 31324 net.cpp:380] conv4 -> conv4
I0822 19:29:58.724027 31324 net.cpp:122] Setting up conv4
I0822 19:29:58.724059 31324 net.cpp:129] Top shape: 256 384 13 13 (16613376)
I0822 19:29:58.724086 31324 net.cpp:137] Memory required for data: 1939042304
I0822 19:29:58.724099 31324 layer_factory.hpp:77] Creating layer relu4
I0822 19:29:58.724113 31324 net.cpp:84] Creating Layer relu4
I0822 19:29:58.724120 31324 net.cpp:406] relu4 <- conv4
I0822 19:29:58.724129 31324 net.cpp:367] relu4 -> conv4 (in-place)
I0822 19:29:58.725004 31324 net.cpp:122] Setting up relu4
I0822 19:29:58.725029 31324 net.cpp:129] Top shape: 256 384 13 13 (16613376)
I0822 19:29:58.725036 31324 net.cpp:137] Memory required for data: 2005495808
I0822 19:29:58.725042 31324 layer_factory.hpp:77] Creating layer conv5
I0822 19:29:58.725059 31324 net.cpp:84] Creating Layer conv5
I0822 19:29:58.725067 31324 net.cpp:406] conv5 <- conv4
I0822 19:29:58.725080 31324 net.cpp:380] conv5 -> conv5
I0822 19:29:58.737993 31324 net.cpp:122] Setting up conv5
I0822 19:29:58.738021 31324 net.cpp:129] Top shape: 256 256 13 13 (11075584)
I0822 19:29:58.738029 31324 net.cpp:137] Memory required for data: 2049798144
I0822 19:29:58.738049 31324 layer_factory.hpp:77] Creating layer relu5
I0822 19:29:58.738060 31324 net.cpp:84] Creating Layer relu5
I0822 19:29:58.738068 31324 net.cpp:406] relu5 <- conv5
I0822 19:29:58.738081 31324 net.cpp:367] relu5 -> conv5 (in-place)
I0822 19:29:58.738884 31324 net.cpp:122] Setting up relu5
I0822 19:29:58.738909 31324 net.cpp:129] Top shape: 256 256 13 13 (11075584)
I0822 19:29:58.738914 31324 net.cpp:137] Memory required for data: 2094100480
I0822 19:29:58.738922 31324 layer_factory.hpp:77] Creating layer pool5
I0822 19:29:58.738932 31324 net.cpp:84] Creating Layer pool5
I0822 19:29:58.738939 31324 net.cpp:406] pool5 <- conv5
I0822 19:29:58.738950 31324 net.cpp:380] pool5 -> pool5
I0822 19:29:58.739018 31324 net.cpp:122] Setting up pool5
I0822 19:29:58.739032 31324 net.cpp:129] Top shape: 256 256 6 6 (2359296)
I0822 19:29:58.739037 31324 net.cpp:137] Memory required for data: 2103537664
I0822 19:29:58.739043 31324 layer_factory.hpp:77] Creating layer fc6
I0822 19:29:58.739063 31324 net.cpp:84] Creating Layer fc6
I0822 19:29:58.739073 31324 net.cpp:406] fc6 <- pool5
I0822 19:29:58.739081 31324 net.cpp:380] fc6 -> fc6
I0822 19:29:59.081684 31324 net.cpp:122] Setting up fc6
I0822 19:29:59.081722 31324 net.cpp:129] Top shape: 256 4096 (1048576)
I0822 19:29:59.081727 31324 net.cpp:137] Memory required for data: 2107731968
I0822 19:29:59.081738 31324 layer_factory.hpp:77] Creating layer relu6
I0822 19:29:59.081755 31324 net.cpp:84] Creating Layer relu6
I0822 19:29:59.081763 31324 net.cpp:406] relu6 <- fc6
I0822 19:29:59.081769 31324 net.cpp:367] relu6 -> fc6 (in-place)
I0822 19:29:59.082352 31324 net.cpp:122] Setting up relu6
I0822 19:29:59.082365 31324 net.cpp:129] Top shape: 256 4096 (1048576)
I0822 19:29:59.082370 31324 net.cpp:137] Memory required for data: 2111926272
I0822 19:29:59.082375 31324 layer_factory.hpp:77] Creating layer drop6
I0822 19:29:59.082383 31324 net.cpp:84] Creating Layer drop6
I0822 19:29:59.082387 31324 net.cpp:406] drop6 <- fc6
I0822 19:29:59.082394 31324 net.cpp:367] drop6 -> fc6 (in-place)
I0822 19:29:59.082428 31324 net.cpp:122] Setting up drop6
I0822 19:29:59.082437 31324 net.cpp:129] Top shape: 256 4096 (1048576)
I0822 19:29:59.082442 31324 net.cpp:137] Memory required for data: 2116120576
I0822 19:29:59.082448 31324 layer_factory.hpp:77] Creating layer fc7
I0822 19:29:59.082456 31324 net.cpp:84] Creating Layer fc7
I0822 19:29:59.082460 31324 net.cpp:406] fc7 <- fc6
I0822 19:29:59.082468 31324 net.cpp:380] fc7 -> fc7
I0822 19:29:59.221560 31324 net.cpp:122] Setting up fc7
I0822 19:29:59.221597 31324 net.cpp:129] Top shape: 256 4096 (1048576)
I0822 19:29:59.221602 31324 net.cpp:137] Memory required for data: 2120314880
I0822 19:29:59.221612 31324 layer_factory.hpp:77] Creating layer relu7
I0822 19:29:59.221626 31324 net.cpp:84] Creating Layer relu7
I0822 19:29:59.221630 31324 net.cpp:406] relu7 <- fc7
I0822 19:29:59.221638 31324 net.cpp:367] relu7 -> fc7 (in-place)
I0822 19:29:59.222601 31324 net.cpp:122] Setting up relu7
I0822 19:29:59.222618 31324 net.cpp:129] Top shape: 256 4096 (1048576)
I0822 19:29:59.222638 31324 net.cpp:137] Memory required for data: 2124509184
I0822 19:29:59.222643 31324 layer_factory.hpp:77] Creating layer drop7
I0822 19:29:59.222652 31324 net.cpp:84] Creating Layer drop7
I0822 19:29:59.222657 31324 net.cpp:406] drop7 <- fc7
I0822 19:29:59.222666 31324 net.cpp:367] drop7 -> fc7 (in-place)
I0822 19:29:59.222695 31324 net.cpp:122] Setting up drop7
I0822 19:29:59.222704 31324 net.cpp:129] Top shape: 256 4096 (1048576)
I0822 19:29:59.222709 31324 net.cpp:137] Memory required for data: 2128703488
I0822 19:29:59.222714 31324 layer_factory.hpp:77] Creating layer fc8
I0822 19:29:59.222724 31324 net.cpp:84] Creating Layer fc8
I0822 19:29:59.222729 31324 net.cpp:406] fc8 <- fc7
I0822 19:29:59.222738 31324 net.cpp:380] fc8 -> fc8
I0822 19:29:59.256786 31324 net.cpp:122] Setting up fc8
I0822 19:29:59.256821 31324 net.cpp:129] Top shape: 256 1000 (256000)
I0822 19:29:59.256826 31324 net.cpp:137] Memory required for data: 2129727488
I0822 19:29:59.256837 31324 layer_factory.hpp:77] Creating layer loss
I0822 19:29:59.256850 31324 net.cpp:84] Creating Layer loss
I0822 19:29:59.256856 31324 net.cpp:406] loss <- fc8
I0822 19:29:59.256863 31324 net.cpp:406] loss <- label
I0822 19:29:59.256871 31324 net.cpp:380] loss -> loss
I0822 19:29:59.256886 31324 layer_factory.hpp:77] Creating layer loss
…
I0822 19:30:01.164288 31324 net.cpp:294] The NetState phase (1) differed from the phase (0) specified by a rule in layer data
I0822 19:30:01.164590 31324 net.cpp:51] Initializing net from parameters: 
name: "AlexNet"
state {
  phase: TEST
}
layer {
  name: "data"
  type: "Data"
  top: "data"
  top: "label"
  include {
    phase: TEST
  }
  transform_param {
    mirror: false
    crop_size: 227
    mean_file: "/home/kaiqi/imagenet/imagenet_mean.binaryproto"
  }
  data_param {
    source: "/home/kaiqi/imagenet/ilsvrc12_val_lmdb"
    batch_size: 50
    backend: LMDB
  }
}
layer {
  name: "conv1"
  type: "Convolution"
  bottom: "data"
  top: "conv1"
  param {
    lr_mult: 1
    decay_mult: 1
    rho: 0.0015
    clustering_num: 128
  }
  param {
    lr_mult: 2
    decay_mult: 0
  }
  convolution_param {
    num_output: 96
    kernel_size: 11
    stride: 4
    weight_filler {
      type: "gaussian"
      std: 0.01
    }
    bias_filler {
      type: "constant"
      value: 0
    }
  }
}
layer {
  name: "relu1"
  type: "ReLU"
  bottom: "conv1"
  top: "conv1"
}
layer {
  name: "norm1"
  type: "LRN"
  bottom: "conv1"
  top: "norm1"
  lrn_param {
    local_size: 5
    alpha: 0.0001
    beta: 0.75
  }
}
layer {
  name: "pool1"
  type: "Pooling"
  bottom: "norm1"
  top: "pool1"
  pooling_param {
    pool: MAX
    kernel_size: 3
    stride: 2
  }
}
layer {
  name: "conv2"
  type: "Convolution"
  bottom: "pool1"
  top: "conv2"
  param {
    lr_mult: 1
    decay_mult: 1
    rho: 0.0015
    clustering_num: 64
  }
  param {
    lr_mult: 2
    decay_mult: 0
  }
  convolution_param {
    num_output: 256
    pad: 2
    kernel_size: 5
    group: 2
    weight_filler {
      type: "gaussian"
      std: 0.01
    }
    bias_filler {
      type: "constant"
      value: 0.1
    }
  }
}
layer {
  name: "relu2"
  type: "ReLU"
  bottom: "conv2"
  top: "conv2"
}
layer {
  name: "norm2"
  type: "LRN"
  bottom: "conv2"
  top: "norm2"
  lrn_param {
    local_size: 5
    alpha: 0.0001
    beta: 0.75
  }
}
layer {
  name: "pool2"
  type: "Pooling"
  bottom: "norm2"
  top: "pool2"
  pooling_param {
    pool: MAX
    kernel_size: 3
    stride: 2
  }
}
layer {
  name: "conv3"
  type: "Convolution"
  bottom: "pool2"
  top: "conv3"
  param {
    lr_mult: 1
    decay_mult: 1
    rho: 0.0015
    clustering_num: 64
  }
  param {
    lr_mult: 2
    decay_mult: 0
  }
  convolution_param {
    num_output: 384
    pad: 1
    kernel_size: 3
    weight_filler {
      type: "gaussian"
      std: 0.01
    }
    bias_filler {
      type: "constant"
      value: 0
    }
  }
}
layer {
  name: "relu3"
  type: "ReLU"
  bottom: "conv3"
  top: "conv3"
}
layer {
  name: "conv4"
  type: "Convolution"
  bottom: "conv3"
  top: "conv4"
  param {
    lr_mult: 1
    decay_mult: 1
    rho: 0.0015
    clustering_num: 64
  }
  param {
    lr_mult: 2
    decay_mult: 0
  }
  convolution_param {
    num_output: 384
    pad: 1
    kernel_size: 3
    group: 2
    weight_filler {
      type: "gaussian"
      std: 0.01
    }
    bias_filler {
      type: "constant"
      value: 0.1
    }
  }
}
layer {
  name: "relu4"
  type: "ReLU"
  bottom: "conv4"
  top: "conv4"
}
layer {
  name: "conv5"
  type: "Convolution"
  bottom: "conv4"
  top: "conv5"
  param {
    lr_mult: 1
    decay_mult: 1
    rho: 0.0015
    clustering_num: 64
  }
  param {
    lr_mult: 2
    decay_mult: 0
  }
  convolution_param {
    num_output: 256
    pad: 1
    kernel_size: 3
    group: 2
    weight_filler {
      type: "gaussian"
      std: 0.01
    }
    bias_filler {
      type: "constant"
      value: 0.1
    }
  }
}
layer {
  name: "relu5"
  type: "ReLU"
  bottom: "conv5"
  top: "conv5"
}
layer {
  name: "pool5"
  type: "Pooling"
  bottom: "conv5"
  top: "pool5"
  pooling_param {
    pool: MAX
    kernel_size: 3
    stride: 2
  }
}
layer {
  name: "fc6"
  type: "InnerProduct"
  bottom: "pool5"
  top: "fc6"
  param {
    lr_mult: 1
    decay_mult: 1
    rho: 0.0015
    clustering_num: 8
  }
  param {
    lr_mult: 2
    decay_mult: 0
  }
  inner_product_param {
    num_output: 4096
    weight_filler {
      type: "gaussian"
      std: 0.005
    }
    bias_filler {
      type: "constant"
      value: 0.1
    }
  }
}
layer {
  name: "relu6"
  type: "ReLU"
  bottom: "fc6"
  top: "fc6"
}
layer {
  name: "drop6"
  type: "Dropout"
  bottom: "fc6"
  top: "fc6"
  dropout_param {
    dropout_ratio: 0.5
  }
}
layer {
  name: "fc7"
  type: "InnerProduct"
  bottom: "fc6"
  top: "fc7"
  param {
    lr_mult: 1
    decay_mult: 1
    rho: 0.0015
    clustering_num: 4
  }
  param {
    lr_mult: 2
    decay_mult: 0
  }
  inner_product_param {
    num_output: 4096
    weight_filler {
      type: "gaussian"
      std: 0.005
    }
    bias_filler {
      type: "constant"
      value: 0.1
    }
  }
}
layer {
  name: "relu7"
  type: "ReLU"
  bottom: "fc7"
  top: "fc7"
}
layer {
  name: "drop7"
  type: "Dropout"
  bottom: "fc7"
  top: "fc7"
  dropout_param {
    dropout_ratio: 0.5
  }
}
layer {
  name: "fc8"
  type: "InnerProduct"
  bottom: "fc7"
  top: "fc8"
  param {
    lr_mult: 1
    decay_mult: 1
    rho: 0.0015
    clustering_num: 128
  }
  param {
    lr_mult: 2
    decay_mult: 0
  }
  inner_product_param {
    num_output: 1000
    weight_filler {
      type: "gaussian"
      std: 0.01
    }
    bias_filler {
      type: "constant"
      value: 0
    }
  }
}
layer {
  name: "accuracy"
  type: "Accuracy"
  bottom: "fc8"
  bottom: "label"
  top: "accuracy"
  include {
    phase: TEST
  }
  accuracy_param {
    top_k: 1
  }
}
layer {
  name: "accuracy5"
  type: "Accuracy"
  bottom: "fc8"
  bottom: "label"
  top: "accuracy5"
  include {
    phase: TEST
  }
  accuracy_param {
    top_k: 5
  }
}
layer {
  name: "loss"
  type: "SoftmaxWithLoss"
  bottom: "fc8"
  bottom: "label"
  top: "loss"
}
I0822 19:30:01.164772 31324 layer_factory.hpp:77] Creating layer data
I0822 19:30:01.164887 31324 db_lmdb.cpp:35] Opened lmdb /home/kaiqi/imagenet/ilsvrc12_val_lmdb
I0822 19:30:01.164919 31324 net.cpp:84] Creating Layer data
I0822 19:30:01.164932 31324 net.cpp:380] data -> data
I0822 19:30:01.164949 31324 net.cpp:380] data -> label
I0822 19:30:01.164965 31324 data_transformer.cpp:25] Loading mean file from: /home/kaiqi/imagenet/imagenet_mean.binaryproto
I0822 19:30:01.166802 31324 data_layer.cpp:45] output data size: 50,3,227,227
I0822 19:30:01.238143 31324 net.cpp:122] Setting up data
I0822 19:30:01.238189 31324 net.cpp:129] Top shape: 50 3 227 227 (7729350)
I0822 19:30:01.238198 31324 net.cpp:129] Top shape: 50 (50)
I0822 19:30:01.238203 31324 net.cpp:137] Memory required for data: 30917600
I0822 19:30:01.238211 31324 layer_factory.hpp:77] Creating layer label_data_1_split
I0822 19:30:01.238229 31324 net.cpp:84] Creating Layer label_data_1_split
I0822 19:30:01.238235 31324 net.cpp:406] label_data_1_split <- label
I0822 19:30:01.238245 31324 net.cpp:380] label_data_1_split -> label_data_1_split_0
I0822 19:30:01.238262 31324 net.cpp:380] label_data_1_split -> label_data_1_split_1
I0822 19:30:01.238272 31324 net.cpp:380] label_data_1_split -> label_data_1_split_2
I0822 19:30:01.238356 31324 net.cpp:122] Setting up label_data_1_split
I0822 19:30:01.238368 31324 net.cpp:129] Top shape: 50 (50)
I0822 19:30:01.238374 31324 net.cpp:129] Top shape: 50 (50)
I0822 19:30:01.238382 31324 net.cpp:129] Top shape: 50 (50)
I0822 19:30:01.238387 31324 net.cpp:137] Memory required for data: 30918200
I0822 19:30:01.238392 31324 layer_factory.hpp:77] Creating layer conv1
I0822 19:30:01.238409 31324 net.cpp:84] Creating Layer conv1
I0822 19:30:01.238417 31324 net.cpp:406] conv1 <- data
I0822 19:30:01.238426 31324 net.cpp:380] conv1 -> conv1
I0822 19:30:01.241410 31324 net.cpp:122] Setting up conv1
I0822 19:30:01.241430 31324 net.cpp:129] Top shape: 50 96 55 55 (14520000)
I0822 19:30:01.241436 31324 net.cpp:137] Memory required for data: 88998200
I0822 19:30:01.241451 31324 layer_factory.hpp:77] Creating layer relu1
I0822 19:30:01.241461 31324 net.cpp:84] Creating Layer relu1
I0822 19:30:01.241466 31324 net.cpp:406] relu1 <- conv1
I0822 19:30:01.241474 31324 net.cpp:367] relu1 -> conv1 (in-place)
I0822 19:30:01.245002 31324 net.cpp:122] Setting up relu1
I0822 19:30:01.245023 31324 net.cpp:129] Top shape: 50 96 55 55 (14520000)
I0822 19:30:01.245029 31324 net.cpp:137] Memory required for data: 147078200
I0822 19:30:01.245035 31324 layer_factory.hpp:77] Creating layer norm1
I0822 19:30:01.245046 31324 net.cpp:84] Creating Layer norm1
I0822 19:30:01.245061 31324 net.cpp:406] norm1 <- conv1
I0822 19:30:01.245080 31324 net.cpp:380] norm1 -> norm1
I0822 19:30:01.245715 31324 net.cpp:122] Setting up norm1
I0822 19:30:01.245729 31324 net.cpp:129] Top shape: 50 96 55 55 (14520000)
I0822 19:30:01.245734 31324 net.cpp:137] Memory required for data: 205158200
I0822 19:30:01.245740 31324 layer_factory.hpp:77] Creating layer pool1
I0822 19:30:01.245757 31324 net.cpp:84] Creating Layer pool1
I0822 19:30:01.245764 31324 net.cpp:406] pool1 <- norm1
I0822 19:30:01.245772 31324 net.cpp:380] pool1 -> pool1
I0822 19:30:01.245820 31324 net.cpp:122] Setting up pool1
I0822 19:30:01.245831 31324 net.cpp:129] Top shape: 50 96 27 27 (3499200)
I0822 19:30:01.245836 31324 net.cpp:137] Memory required for data: 219155000
I0822 19:30:01.245841 31324 layer_factory.hpp:77] Creating layer conv2
I0822 19:30:01.245852 31324 net.cpp:84] Creating Layer conv2
I0822 19:30:01.245859 31324 net.cpp:406] conv2 <- pool1
I0822 19:30:01.245867 31324 net.cpp:380] conv2 -> conv2
I0822 19:30:01.253968 31324 net.cpp:122] Setting up conv2
I0822 19:30:01.254015 31324 net.cpp:129] Top shape: 50 256 27 27 (9331200)
I0822 19:30:01.254022 31324 net.cpp:137] Memory required for data: 256479800
I0822 19:30:01.254036 31324 layer_factory.hpp:77] Creating layer relu2
I0822 19:30:01.254046 31324 net.cpp:84] Creating Layer relu2
I0822 19:30:01.254051 31324 net.cpp:406] relu2 <- conv2
I0822 19:30:01.254060 31324 net.cpp:367] relu2 -> conv2 (in-place)
I0822 19:30:01.254603 31324 net.cpp:122] Setting up relu2
I0822 19:30:01.254616 31324 net.cpp:129] Top shape: 50 256 27 27 (9331200)
I0822 19:30:01.254622 31324 net.cpp:137] Memory required for data: 293804600
I0822 19:30:01.254628 31324 layer_factory.hpp:77] Creating layer norm2
I0822 19:30:01.254639 31324 net.cpp:84] Creating Layer norm2
I0822 19:30:01.254645 31324 net.cpp:406] norm2 <- conv2
I0822 19:30:01.254652 31324 net.cpp:380] norm2 -> norm2
I0822 19:30:01.255501 31324 net.cpp:122] Setting up norm2
I0822 19:30:01.255517 31324 net.cpp:129] Top shape: 50 256 27 27 (9331200)
I0822 19:30:01.255523 31324 net.cpp:137] Memory required for data: 331129400
I0822 19:30:01.255528 31324 layer_factory.hpp:77] Creating layer pool2
I0822 19:30:01.255537 31324 net.cpp:84] Creating Layer pool2
I0822 19:30:01.255543 31324 net.cpp:406] pool2 <- norm2
I0822 19:30:01.255550 31324 net.cpp:380] pool2 -> pool2
I0822 19:30:01.255597 31324 net.cpp:122] Setting up pool2
I0822 19:30:01.255609 31324 net.cpp:129] Top shape: 50 256 13 13 (2163200)
I0822 19:30:01.255615 31324 net.cpp:137] Memory required for data: 339782200
I0822 19:30:01.255620 31324 layer_factory.hpp:77] Creating layer conv3
I0822 19:30:01.255632 31324 net.cpp:84] Creating Layer conv3
I0822 19:30:01.255640 31324 net.cpp:406] conv3 <- pool2
I0822 19:30:01.255648 31324 net.cpp:380] conv3 -> conv3
I0822 19:30:01.267720 31324 net.cpp:122] Setting up conv3
I0822 19:30:01.267753 31324 net.cpp:129] Top shape: 50 384 13 13 (3244800)
I0822 19:30:01.267760 31324 net.cpp:137] Memory required for data: 352761400
I0822 19:30:01.267776 31324 layer_factory.hpp:77] Creating layer relu3
I0822 19:30:01.267786 31324 net.cpp:84] Creating Layer relu3
I0822 19:30:01.267792 31324 net.cpp:406] relu3 <- conv3
I0822 19:30:01.267802 31324 net.cpp:367] relu3 -> conv3 (in-place)
I0822 19:30:01.268342 31324 net.cpp:122] Setting up relu3
I0822 19:30:01.268355 31324 net.cpp:129] Top shape: 50 384 13 13 (3244800)
I0822 19:30:01.268362 31324 net.cpp:137] Memory required for data: 365740600
I0822 19:30:01.268366 31324 layer_factory.hpp:77] Creating layer conv4
I0822 19:30:01.268379 31324 net.cpp:84] Creating Layer conv4
I0822 19:30:01.268384 31324 net.cpp:406] conv4 <- conv3
I0822 19:30:01.268393 31324 net.cpp:380] conv4 -> conv4
I0822 19:30:01.279938 31324 net.cpp:122] Setting up conv4
I0822 19:30:01.279973 31324 net.cpp:129] Top shape: 50 384 13 13 (3244800)
I0822 19:30:01.279978 31324 net.cpp:137] Memory required for data: 378719800
I0822 19:30:01.279989 31324 layer_factory.hpp:77] Creating layer relu4
I0822 19:30:01.280000 31324 net.cpp:84] Creating Layer relu4
I0822 19:30:01.280015 31324 net.cpp:406] relu4 <- conv4
I0822 19:30:01.280033 31324 net.cpp:367] relu4 -> conv4 (in-place)
I0822 19:30:01.280578 31324 net.cpp:122] Setting up relu4
I0822 19:30:01.280594 31324 net.cpp:129] Top shape: 50 384 13 13 (3244800)
I0822 19:30:01.280599 31324 net.cpp:137] Memory required for data: 391699000
I0822 19:30:01.280603 31324 layer_factory.hpp:77] Creating layer conv5
I0822 19:30:01.280616 31324 net.cpp:84] Creating Layer conv5
I0822 19:30:01.280623 31324 net.cpp:406] conv5 <- conv4
I0822 19:30:01.280632 31324 net.cpp:380] conv5 -> conv5
I0822 19:30:01.291108 31324 net.cpp:122] Setting up conv5
I0822 19:30:01.291134 31324 net.cpp:129] Top shape: 50 256 13 13 (2163200)
I0822 19:30:01.291141 31324 net.cpp:137] Memory required for data: 400351800
I0822 19:30:01.291155 31324 layer_factory.hpp:77] Creating layer relu5
I0822 19:30:01.291165 31324 net.cpp:84] Creating Layer relu5
I0822 19:30:01.291172 31324 net.cpp:406] relu5 <- conv5
I0822 19:30:01.291179 31324 net.cpp:367] relu5 -> conv5 (in-place)
I0822 19:30:01.291692 31324 net.cpp:122] Setting up relu5
I0822 19:30:01.291704 31324 net.cpp:129] Top shape: 50 256 13 13 (2163200)
I0822 19:30:01.291709 31324 net.cpp:137] Memory required for data: 409004600
I0822 19:30:01.291714 31324 layer_factory.hpp:77] Creating layer pool5
I0822 19:30:01.291725 31324 net.cpp:84] Creating Layer pool5
I0822 19:30:01.291731 31324 net.cpp:406] pool5 <- conv5
I0822 19:30:01.291738 31324 net.cpp:380] pool5 -> pool5
I0822 19:30:01.291791 31324 net.cpp:122] Setting up pool5
I0822 19:30:01.291801 31324 net.cpp:129] Top shape: 50 256 6 6 (460800)
I0822 19:30:01.291806 31324 net.cpp:137] Memory required for data: 410847800
I0822 19:30:01.291810 31324 layer_factory.hpp:77] Creating layer fc6
I0822 19:30:01.291821 31324 net.cpp:84] Creating Layer fc6
I0822 19:30:01.291826 31324 net.cpp:406] fc6 <- pool5
I0822 19:30:01.291832 31324 net.cpp:380] fc6 -> fc6
I0822 19:30:01.607568 31324 net.cpp:122] Setting up fc6
I0822 19:30:01.607609 31324 net.cpp:129] Top shape: 50 4096 (204800)
I0822 19:30:01.607614 31324 net.cpp:137] Memory required for data: 411667000
I0822 19:30:01.607623 31324 layer_factory.hpp:77] Creating layer relu6
I0822 19:30:01.607633 31324 net.cpp:84] Creating Layer relu6
I0822 19:30:01.607640 31324 net.cpp:406] relu6 <- fc6
I0822 19:30:01.607648 31324 net.cpp:367] relu6 -> fc6 (in-place)
I0822 19:30:01.608660 31324 net.cpp:122] Setting up relu6
I0822 19:30:01.608676 31324 net.cpp:129] Top shape: 50 4096 (204800)
I0822 19:30:01.608682 31324 net.cpp:137] Memory required for data: 412486200
I0822 19:30:01.608686 31324 layer_factory.hpp:77] Creating layer drop6
I0822 19:30:01.608695 31324 net.cpp:84] Creating Layer drop6
I0822 19:30:01.608700 31324 net.cpp:406] drop6 <- fc6
I0822 19:30:01.608705 31324 net.cpp:367] drop6 -> fc6 (in-place)
I0822 19:30:01.608738 31324 net.cpp:122] Setting up drop6
I0822 19:30:01.608747 31324 net.cpp:129] Top shape: 50 4096 (204800)
I0822 19:30:01.608752 31324 net.cpp:137] Memory required for data: 413305400
I0822 19:30:01.608757 31324 layer_factory.hpp:77] Creating layer fc7
I0822 19:30:01.608765 31324 net.cpp:84] Creating Layer fc7
I0822 19:30:01.608770 31324 net.cpp:406] fc7 <- fc6
I0822 19:30:01.608777 31324 net.cpp:380] fc7 -> fc7
I0822 19:30:01.748076 31324 net.cpp:122] Setting up fc7
I0822 19:30:01.748114 31324 net.cpp:129] Top shape: 50 4096 (204800)
I0822 19:30:01.748119 31324 net.cpp:137] Memory required for data: 414124600
I0822 19:30:01.748131 31324 layer_factory.hpp:77] Creating layer relu7
I0822 19:30:01.748142 31324 net.cpp:84] Creating Layer relu7
I0822 19:30:01.748148 31324 net.cpp:406] relu7 <- fc7
I0822 19:30:01.748157 31324 net.cpp:367] relu7 -> fc7 (in-place)
I0822 19:30:01.748711 31324 net.cpp:122] Setting up relu7
I0822 19:30:01.748725 31324 net.cpp:129] Top shape: 50 4096 (204800)
I0822 19:30:01.748729 31324 net.cpp:137] Memory required for data: 414943800
I0822 19:30:01.748734 31324 layer_factory.hpp:77] Creating layer drop7
I0822 19:30:01.748741 31324 net.cpp:84] Creating Layer drop7
I0822 19:30:01.748755 31324 net.cpp:406] drop7 <- fc7
I0822 19:30:01.748772 31324 net.cpp:367] drop7 -> fc7 (in-place)
I0822 19:30:01.748805 31324 net.cpp:122] Setting up drop7
I0822 19:30:01.748814 31324 net.cpp:129] Top shape: 50 4096 (204800)
I0822 19:30:01.748819 31324 net.cpp:137] Memory required for data: 415763000
I0822 19:30:01.748824 31324 layer_factory.hpp:77] Creating layer fc8
I0822 19:30:01.748832 31324 net.cpp:84] Creating Layer fc8
I0822 19:30:01.748837 31324 net.cpp:406] fc8 <- fc7
I0822 19:30:01.748844 31324 net.cpp:380] fc8 -> fc8
I0822 19:30:01.783187 31324 net.cpp:122] Setting up fc8
I0822 19:30:01.783219 31324 net.cpp:129] Top shape: 50 1000 (50000)
I0822 19:30:01.783224 31324 net.cpp:137] Memory required for data: 415963000
I0822 19:30:01.783236 31324 layer_factory.hpp:77] Creating layer fc8_fc8_0_split
I0822 19:30:01.783244 31324 net.cpp:84] Creating Layer fc8_fc8_0_split
I0822 19:30:01.783251 31324 net.cpp:406] fc8_fc8_0_split <- fc8
I0822 19:30:01.783258 31324 net.cpp:380] fc8_fc8_0_split -> fc8_fc8_0_split_0
I0822 19:30:01.783268 31324 net.cpp:380] fc8_fc8_0_split -> fc8_fc8_0_split_1
I0822 19:30:01.783277 31324 net.cpp:380] fc8_fc8_0_split -> fc8_fc8_0_split_2
I0822 19:30:01.783332 31324 net.cpp:122] Setting up fc8_fc8_0_split
I0822 19:30:01.783340 31324 net.cpp:129] Top shape: 50 1000 (50000)
I0822 19:30:01.783345 31324 net.cpp:129] Top shape: 50 1000 (50000)
I0822 19:30:01.783350 31324 net.cpp:129] Top shape: 50 1000 (50000)
I0822 19:30:01.783354 31324 net.cpp:137] Memory required for data: 416563000
I0822 19:30:01.783358 31324 layer_factory.hpp:77] Creating layer accuracy
I0822 19:30:01.783368 31324 net.cpp:84] Creating Layer accuracy
I0822 19:30:01.783373 31324 net.cpp:406] accuracy <- fc8_fc8_0_split_0
I0822 19:30:01.783380 31324 net.cpp:406] accuracy <- label_data_1_split_0
I0822 19:30:01.783396 31324 net.cpp:380] accuracy -> accuracy
…
